models/classifier/model.pt (torch, 448628 bytes, 6 tensors)

weight f4 [32, 1, 3, 3]
-0.024241114 0.26556733 -0.036493614 -0.012536825 -0.21973622 0.11190577 -0.087869175 0.0025646773
-0.16197482 0.22768806 0.08323662 0.3174686 0.2688509 0.14614318 -0.16266127 0.0018020209
0.07671016 -0.3079506 -0.12810054 -0.29574457 -0.021819862 -0.14769967 -0.12255925 -0.21054535
0.05907366 0.15967444 -0.23332286 -0.3225464 0.09602213 -0.049481455 0.09508904 0.31299245
0.2021442 0.24088934 0.089318685 0.01163523 -0.14511245 0.17726423 0.19666354 -0.024524081
-0.17674312 -0.02445573 -0.22769468 0.14608872 -0.2036422 -0.31834474 -0.055942103 -0.2893288
-0.19001335 -0.2546441 -0.08555617 -0.06689055 0.27211365 -0.060791913 0.20913693 -0.23307465
-0.12756184 0.26803583 -0.0909823 0.06136067 0.28574342 -0.2149306 -0.19307707 -0.1232296
-0.2953522 -0.3080149 -0.156391 0.28947952 0.2805304 -0.09278444 0.014728908 0.11969846
-0.14005804 -0.101938985 0.30302185 -0.15651937 -0.29394484 -0.22156152 -0.31045184 0.13270861
0.12191552 -0.1421819 -0.27616405 0.23330417 0.24101411 -0.084373206 0.3265084 -0.1505375
-0.2875595 0.119640306 -0.20968054 0.0024565589 0.26043305 -0.04960235 -0.27596304 0.28563675
-0.16533831 -0.029705795 0.11074493 0.003420944 0.2543211 -0.2202019 -0.32763034 -0.038396195
0.27841935 0.15286262 -0.15458177 0.09724876 -0.042930868 0.27572563 0.2572763 -0.121145666
-0.23872031 -0.312141 0.00393096 0.29167864 -0.2681681 -0.22147617 0.19921768 -0.04411502
0.22205701 0.32089925 0.13018604 0.22714679 0.33126852 -0.14803675 0.27883992 -0.10743548
-0.15899158 0.29705685 0.17301467 0.30201784 0.05786582 0.14373301 -0.035588108 -0.26911384
0.28386104 -0.14934053 -0.2550525 -0.06906717 -0.064078495 -0.06294349 -0.1455606 0.12247626
0.19539972 0.17898625 -0.060256127 -0.3316218 0.094413 -0.14749087 -0.2004961 0.04443984
-0.18617761 -0.0052934694 0.25340933 -0.14281236 0.27116954 0.24893348 0.31043375 -0.0954766
0.2921983 0.0036276085 0.17836837 0.035402156 -0.1831486 0.13092859 0.0035754289 0.097005434
-0.28794187 -0.2893226 0.06215336 0.06861124 -0.26403508 0.17575844 0.012951988 0.014341558
-0.31257042 0.22047201 -0.16434973 -0.12641916 -0.3199232 0.10101667 0.05692072 -0.11775549
0.12857668 -0.18362312 0.050560053 0.2036513 -0.18356782 0.19597591 -0.21993971 -0.2842175
-0.061686426 -0.15735805 0.2449806 0.27477938 0.29093784 0.13962619 0.32600087 0.31253263
-0.014665035 0.17202173 0.071124144 0.20266432 -0.22585927 -0.096248224 0.31461516 -0.2681385
-0.18413253 -0.13050942 0.11537855 -0.27487078 0.3189172 0.027009021 -0.0031476934 0.20603836
0.28034437 0.07690107 0.33961305 -0.038905613 0.30461156 0.18020476 0.2044927 0.22914374
0.22445996 0.11379881 0.12741481 -0.31323346 0.20846874 -0.200833 -0.13196467 -0.29185963
-0.0916157 0.17088974 0.2807351 0.25484064 -0.28261167 -0.12531337 -0.07871705 0.23239829
0.11726147 0.21414216 -0.009264811 -0.12939192 0.2580711 0.17993373 0.19319935 -0.16255647
-0.141399 -0.16197552 -0.18765607 0.2360046 -0.008610975 0.014099192 0.14536874 0.32832465
00000000: 4d95 c6bc 71f8 873e 547a 15bd 4167 4dbc
00000010: 8802 61be da2e e53d c1f4 b3bd 2514 283b
00000020: badc 25be 0f27 693e f677 aa3d 3f8b a23e
00000030: d3a6 893e 8fa6 153e ad90 26be ca31 ec3a
00000040: 371a 9d3d b3ab 9dbe ca2c 03be d56b 97be
00000050: 91bf b2bc 953e 17be 5800 fbbd 3399 57be
00000060: 39f7 713d b281 233e 30ec 6ebe cd24 a5be
00000070: 40a7 c43d 11ad 4abd 0bbe c23d 8c40 a03e
00000080: e4fe 4e3e b2ab 763e b7ec b63d b1a1 3e3c
00000090: 5c98 14be c184 353e 2b62 493e bae6 c8bc
000000a0: 26fc 34be 6257 c8bc cb28 69be 4898 153e
000000b0: 9587 50be 15fe a2be 8c23 65bd e822 94be
000000c0: dc92 42be b660 82be 1338 afbd eafd 88bd
000000d0: 7b52 8b3e f100 79bd fe27 563e 1fab 6ebe
000000e0: 929f 02be fe3b 893e ee54 babd 5355 7b3d
000000f0: f64c 923e c416 5cbe ffb5 45be cd5f fcbd
00000100: 6738 97be 21b4 9dbe f624 20be a936 943e
00000110: aea1 8f3e c505 bebd 8551 713c 7724 f53d
00000120: 606b 0fbe 63c5 d0bd ae25 9b3e 9d46 20be
00000130: f07f 96be 06e1 62be 8bf3 9ebe c4e4 073e
00000140: d8ae f93d 2298 11be 6065 8dbe 4ae7 6e3e
00000150: 67cc 763e dccb acbd 1c2c a73e 8126 1abe
00000160: 003b 93be fa05 f53d 7fb6 56be 38fe 203b
00000170: 7b57 853e d52b 4bbd 074b 8dbe fb3e 923e
00000180: 724e 29be 9159 f3bc 3dce e23d eb31 603b
00000190: 6036 823e 9b7c 61be 2abf a7be 5445 1dbd
000001a0: fb8c 8e3e 0588 1c3e af4a 1ebe 5c2a c73d
000001b0: 47d8 2fbd e92b 8d3e b8b9 833e 381b f8bd
000001c0: 1973 74be f2d0 9fbe 48cf 803b e756 953e
000001d0: 544d 89be a6ca 62be b8ff 4b3e f4b1 34bd
000001e0: ea62 633e e84c a43e 7d4f 053e 2b99 683e
000001f0: 079c a93e f296 17be 1bc4 8e3e 2207 dcbd
00000200: b0ce 22be d617 983e c22a 313e 15a2 9a3e
00000210: b604 6d3d bf2e 133e d6c4 11bd 4ac9 89be
00000220: 3c56 913e b9ec 18be 3e96 82be 1773 8dbd
00000230: 963b 83bd 84e8 80bd d70d 15be d5d4 fa3d
00000240: dd16 483e 2c48 373e 21cf 76bd 55ca a9be
00000250: 9a5b c13d d907 17be da4e 4dbe 8d06 363d
00000260: 58a5 3ebe d774 adbb debe 813e 673d 12be
00000270: bcd6 8a3e 6be8 7e3e 2cf1 9e3e 3c89 c3bd
00000280: 049b 953e 2cbd 6d3b 33a6 363e da01 113d
00000290: 4e8b 3bbe 2512 063e be51 6a3b c9aa c63d
000002a0: 1e6d 93be 1822 94be 8694 7e3d 0d84 8c3d
000002b0: 9b2f 87be 05fa 333e 9334 543c dbf8 6a3c
000002c0: 3b09 a0be 6ac3 613e 4c4b 28be 0674 01be
000002d0: f9cc a3be d4e1 ce3d b325 693d ca29 f1bd
000002e0: 9ba9 033e b307 3cbe 0f18 4f3d f789 503e
000002f0: 34f9 3bbe e9ad 483e e037 61be f584 91be
00000300: e8aa 7cbd 7822 21be 32dc 7a3e e2af 8c3e
00000310: cef5 943e 2bfa 0e3e 96e9 a63e 4704 a03e
00000320: 9d45 70bc 7726 303e 89a9 913d 3c87 4f3e
00000330: a747 67be ca1d c5bd 3d15 a13e 7349 89be
00000340: 3d8d 3cbe 43a4 05be 974b ec3d ddbb 8cbe
00000350: 1e49 a33e 0642 dd3c 8849 4ebb b8fb 523e
00000360: 4c89 8f3e 4f7e 9d3d c3e1 ad3e 7e5b 1fbd
00000370: 0cf6 9b3e 9987 383e 8966 513e a8a4 6a3e
00000380: d5d8 653e 5a0f e93d 0779 023e 2360 a0be
00000390: d478 553e 2aa7 4dbe bf21 07be a06e 95be
000003a0: 03a1 bbbd b8fd 2e3e 83bc 8f3e 797a 823e
000003b0: 7ab2 90be 2652 00be 6836 a1bd d1f9 6d3e
000003c0: c826 f03d 1548 5b3e 6fcb 17bc 517f 04be
000003d0: e521 843e 8c40 383e 0dd6 453e 3475 26be
000003e0: e6ca 10be e9dc 25be ea28 40be 31ab 713e
000003f0: 0c15 0dbc 4c00 673c 8bdb 143e 2b1a a83e

bias f4 [32]
-0.037832957 -0.3113448 -0.0046699652 -0.24802239 -0.10475316 -0.18445583 -0.22394355 0.24350978
-0.29492736 -0.31290242 0.17035179 0.27643842 -0.22477162 -0.30125412 0.23306507 0.016117135
-0.13617988 -0.15944518 0.23700148 -0.26785553 0.022420581 -0.31126678 -0.27350205 -0.26908153
0.2637658 -0.2155602 0.24835666 -0.19041544 0.085413784 0.2822557 0.18110004 0.03698539
00000000: bbf6 1abd 9668 9fbe 8206 99bb 95f9 7dbe
00000010: d388 d6bd fde1 3cbe 7551 65be a15a 793e
00000020: b800 97be bf34 a0be b370 2e3e 5689 8d3e
00000030: 882a 66be fb3d 9abe 9ca8 6e3e 1508 843c
00000040: bd72 0bbe 9945 23be 84b0 723e 5c24 89be
00000050: 5eab b73c 5c5e 9fbe 7608 8cbe 0ec5 89be
00000060: 500c 873e d0bb 5cbe 3551 7e3e 44fc 42be
00000070: 6ced ae3d d283 903e 4a72 393e fe7d 173d

weight f4 [64, 32, 3, 3]
-0.03813147 0.0075965 -0.019488499 -0.01603209 -0.03631603 -0.008478255 -0.040437143 0.006952754
-0.00718545 -0.0061844564 -0.022473462 -0.010915903 -0.027717559 0.03143975 0.019802932 -0.015623149
-0.0060346965 -0.0047719064 0.04455899 -0.051977523 -0.0015576008 -0.015902705 0.034595173 -0.022780104
0.005764331 -0.038308743 0.0417552 0.050579853 0.022916835 0.022945492 0.051151574 -0.03454333
-0.035752468 -0.010515317 -0.0317281 0.0024363 0.058453668 0.055685177 -0.012100987 -0.037602082
-0.02045538 -0.05383189 -0.025342561 0.05337171 -0.012958329 0.028079834 0.026112221 -0.02067876
-0.038431946 0.0054597883 -0.027796853 0.015579555 0.032924086 -0.01797845 -0.052353464 -0.009744445
-0.03947404 0.05320344 -0.038703974 0.031453393 -0.028030902 -0.036144566 0.011852494 -0.05285026
-0.05050458 -0.029157808 0.05252535 -0.03358543 0.027767908 -0.0030474965 0.0066387504 -0.057745844
-0.04619585 -0.0020947403 0.027554745 0.00023186581 0.052710216 0.04155966 -0.035806604 -0.02054117
-0.031877268 -0.023527421 -0.022428716 -0.023094708 0.0017169914 0.05187519 -0.046363425 -0.012289214
-0.016890243 0.0014381038 0.0126521075 -0.0060674436 0.006387117 -0.058980715 0.019143982 0.0047751092
0.0012263494 0.03373931 0.0413839 -0.0041167946 0.042056926 0.032676436 -0.029970711 0.031451553
0.02880471 0.01480735 -0.007760828 -0.034615435 0.040912114 -0.039867677 0.00674726 -0.0005361794
-0.047019076 -0.013156939 -0.05710523 0.03256388 -0.003796323 0.009506105 -0.0038635524 0.037270598
0.02131818 0.002333062 -0.050259233 0.018495407 -0.0023885851 -0.031237304 0.060391992 -0.025751077
-0.027028332 -0.0063543515 -0.03623524 -0.01831153 0.05860573 0.032394405 -0.042348303 0.02711382
-0.051411033 0.043801356 0.013325478 0.0021138587 -0.047399133 0.018056609 0.03292401 -0.004255255
-0.00088620116 -0.014064684 0.008129725 -0.0032679015 0.0024738307 -0.0065248604 0.054199073 -0.031299733
-0.019079985 0.054290596 0.011323934 -0.028295694 0.0077550095 -0.03150173 -0.0073298886 -0.015209375
0.04079986 0.04675402 0.02675842 0.034128647 0.0070687076 0.002141208 -0.031500183 -0.03817605
0.010712315 0.0042641116 -0.046560444 0.047893964 -0.044171873 0.03554607 0.044767812 -0.05596203
-0.026984544 -0.039073 -0.013202025 -0.0050373133 -0.008851263 -0.0032872858 -0.050754923 0.016999424
-0.017114654 0.004500455 -0.0442459 -0.006573356 -0.037153985 0.019470127 -0.04764556 0.04054437
0.024559615 0.036204576 -0.02155668 0.031417552 0.053646307 -0.033542998 0.055857133 -0.04321177
0.009220177 0.03151823 -0.007230221 -0.007294283 0.05126933 0.034017228 -0.022451961 -0.008723684
0.058372237 0.050636005 0.04371581 -0.008775223 -0.022761839 0.038484298 0.016262088 0.05086951
0.034722224 -0.0524208 -0.019118072 0.017103752 0.060786135 -0.01515065 0.06493269 0.0010474966
0.054980442 0.04993404 -0.035383806 0.046941116 -0.046378326 0.049521063 0.0258508 -0.026541883
-0.024628151 0.028300336 0.059514437 -0.025418079 0.058941655 0.012430629 -0.028558444 0.026150014
0.041840713 0.057035573 0.029848939 -0.04175319 -0.0074598663 -0.046657477 0.030934917 0.015848063
0.014963154 -0.01265599 0.033096813 -0.007946642 -0.012682681 -0.027030913 0.021775289 -0.018387424
00000000: bf2f 1cbd 10ec f83b 58a6 9fbc bb55 83bc
00000010: 1ec0 14bd 61e8 0abc 6ba1 25bd eed3 e33b
00000020: ec73 ebbb fba6 cabb 441a b8bc 9ed8 32bc
00000030: ef0f e3bc f8c6 003d c239 a23c 3df8 7fbc
00000040: b4be c5bb a75d 9cbb 7d83 363d 62e6 54bd
00000050: 6928 ccba 6446 82bc abb3 0d3d 579d babc
00000060: b7e2 bc3b a1e9 1cbd 8007 2b3d d22c 4f3d
00000070: 16bc bb3c 2ff8 bb3c 5084 513d 4f7d 0dbd
00000080: 2e71 12bd 7048 2cbc 53f5 01bd 55aa 1f3b
00000090: 1d6d 6f3d 2416 643d 3843 46bc a404 1abd
000000a0: 0b92 a7bc d47e 5cbd 349b cfbc 4b9c 5a3d
000000b0: 2c4f 54bc ae07 e63c 4ce9 d53c 8166 a9bc
000000c0: d16a 1dbd 06e8 b23b 3ab6 e3bc 6441 7f3c
000000d0: 68db 063d 8b47 93bc 9670 56bd 2aa7 1fbc
000000e0: 88af 21bd daeb 593d 0f88 1ebd 46d5 003d
000000f0: 10a1 e5bc 530c 14bd f730 423c 8479 58bd
00000100: e4dd 4ebd 5bdc eebc d224 573d e090 09bd
00000110: 8679 e33c 82b8 47bb e089 d93b e886 6cbd
00000120: dc37 3dbd e947 09bb 7dba e13c 0121 7339
00000130: abe6 573d 763a 2a3d f2a9 12bd f545 a8bc
00000140: bd91 02bd 94bc c0bc 6dbc b7bc 1d31 bdbc
00000150: ac0c e13a 147b 543d 93e7 3dbd b358 49bc
00000160: 685d 8abc c27e bc3a c94a 4f3c 68d1 c6bb
00000170: 054b d13b c395 71bd d7d3 9c3c 8578 9c3b
00000180: 75bd a03a 3b32 0a3d 2a82 293d 2de6 86bb
00000190: e243 2c3d bad7 053d 2385 f5bc 58d3 003d
000001a0: dbf7 eb3c 879a 723c 8b4e febb eac8 0dbd
000001b0: 7693 273d 4a4c 23bd 1f18 dd3b 648e 0cba
000001c0: 1397 40bd 3490 57bc 2ce7 69bd b461 053d
000001d0: bbcb 78bb 7fbf 1b3c a733 7dbb 0ea9 183d
000001e0: 77a3 ae3c 49e6 183b a0dc 4dbd ae83 973c
000001f0: cf89 1cbb 60e5 ffbc 985d 773d ecf3 d2bc
00000200: 856a ddbc 2a38 d0bb 676b 14bd 1002 96bc
00000210: 900c 703d ffaf 043d 6a75 2dbd cd1d de3c
00000220: 6094 52bd 0d69 333d 1b53 5a3c aa88 0a3b
00000230: 9825 42bd 74eb 933c 54db 063d ab6f 8bbb
00000240: f44f 68ba 8f6f 66bc 8a32 053c 4a2a 56bb
00000250: fe1f 223b 7fce d5bb d9ff 5d3d 2634 00bd
00000260: a14d 9cbc d15f 5e3d 0688 393c 5fcc e7bc
00000270: bc1d fe3b f507 01bd 902f f0bb be30 79bc
00000280: c11d 273d 2581 3f3d 7934 db3c 7bca 0b3d
00000290: 9ea0 e73b 8253 0c3b 5606 01bd 7d5e 1cbd
000002a0: b582 2f3c f6b9 8b3b 2ab6 3ebd 762c 443d
000002b0: 91ed 34bd c298 113d 745e 373d 7138 65bd
000002c0: b10e ddbc 030b 20bd 4e4d 58bc 0c10 a5bb
000002d0: e304 11bc 816f 57bb 65e4 4fbd 6042 8b3c
000002e0: 0834 8cbc 8e78 933b 303b 35bd 4f65 d7bb
000002f0: c72e 18bd d17f 9f3c fe27 43bd da11 263d
00000300: 3f31 c93c 404b 143d a297 b0bc b1af 003d
00000310: 3bbc 5b3d 6264 09bd 73ca 643d d3fe 30bd
00000320: 3a10 173c 4219 013d 7deb ecbb e104 efbb
00000330: caff 513d a655 0b3d 2ded b7bc c8ed 0ebc
00000340: ba17 6f3d b367 4f3d 590f 333d f4c5 0fbc
00000350: 0977 babc b6a1 1d3d 1238 853c 8c5c 503d
00000360: e438 0e3d 31b7 56bd 819d 9cbc 2b1d 8c3c
00000370: e2fa 783d 6f3a 78bc 6efb 843d 274c 893a
00000380: 2c33 613d a387 4c3d 9cee 10bd 5445 403d
00000390: 33f7 3dbd 99d6 4a3d 0fc5 d33c 5d6e d9bc
000003a0: fac0 c9bc 1bd6 e73c 69c5 733d 9339 d0bc
000003b0: ce6c 713d d6a9 4b3c 66f3 e9bc 8e38 d63c
000003c0: 2b61 2b3d 229e 693d c385 f43c 6505 2bbd
000003d0: e571 f4bb e91b 3fbd 396b fd3c ccd3 813c
000003e0: 0428 753c 125b 4fbc 8690 073d a232 02bc
000003f0: 05cb 4fbc ef6f ddbc 1762 b23c 39a1 96bc

bias f4 [64]
0.015550316 0.050992753 0.014900787 -0.017395267 0.047438405 0.035347484 -0.0050423834 -0.019614361
-0.016067643 0.033010703 -0.058294225 -0.025934048 0.04623708 -0.03305533 0.029293027 -0.011809555
-0.04509086 0.024766834 0.051734403 -0.019932574 -0.008535412 0.037427343 0.04009344 -0.01495333
-0.030809011 0.036403302 0.0026528065 -0.025934411 0.011379113 0.043820404 0.015946103 -0.054659292
0.014882451 0.05818608 0.009565774 0.017508373 -0.045580484 0.047792792 0.016750935 0.037415393
-0.0056617637 0.055741888 -0.004350032 -0.020074578 0.060658127 -0.05586582 -0.056937736 0.055481337
-0.04624223 -0.055946775 -0.019130796 0.047173373 0.051100932 0.053067558 -0.034105178 0.03173518
0.0323823 0.025568912 0.037079804 -0.04596087 0.01053215 -0.05685275 0.023939054 0.028617691
00000000: c1c6 7e3c c7dd 503d 6e22 743c 8580 8ebc
00000010: c64e 423d 86c8 103d 943a a5bb 4cae a0bc
00000020: 4aa0 83bc 3b36 073d edc5 6ebd a473 d4bc
00000030: 1863 3d3d 0765 07bd eef7 ef3c dd7c 41bc
00000040: 32b1 38bd d1e3 ca3c 74e7 533d a349 a3bc
00000050: 1dd8 0bbc 6a4d 193d 0539 243d d0fe 74bc
00000060: 2e63 fcbc a11b 153d b5da 2d3b 6774 d4bc
00000070: 766f 3a3c 067d 333d 67a1 823c 6ce2 5fbd
00000080: 86d5 733c 8754 6e3d c4b9 1c3c b86d 8f3c
00000090: 9ab2 3abd 60c2 433d 4239 893c e240 193d
000000a0: 5186 b9bb 9b51 643d b78a 8ebb 7173 a4bc
000000b0: a874 783d 8fd3 64bd 8b37 69bd 6640 633d
000000c0: 7e68 3dbd 7228 65bd 30b8 9cbc de38 413d
000000d0: 364f 513d 5e5d 593d dfb1 0bbd c0fc 013d
000000e0: 4da3 043d e575 d13c fee0 173d 7741 3cbd
000000f0: 0a8f 2c3c 6ede 68bd d61b c43c a66f ea3c

weight f4 [10, 9216]
-0.0004064111 -0.0042459415 -0.0035462442 0.0028607722 -0.010552421 -0.0008024249 -0.0070549394 0.0059334063
-0.00456521 -0.0035958567 0.0024834462 -0.005815801 -0.010194249 -0.0092419 0.008048707 0.008221393
0.00489063 -0.009151746 0.00878222 0.011419603 0.012958992 0.0077566267 0.0075031756 -0.0023977708
0.0051927287 -0.0030738877 -0.0015398737 -0.0034032534 0.0033143049 0.002417808 0.000158499 0.0074428353
0.0011439362 0.00087687606 0.0030985682 -0.00299317 -0.0066397293 -0.0075209476 -0.0021633662 0.00494088
0.0005540352 0.0048659043 0.008693711 -0.0066611287 0.009317301 0.009292901 -0.0045223814 0.00519123
0.008619609 0.0043694503 -0.007863943 -0.004596702 -0.0023248806 -0.008379595 -0.0060553416 -0.00018648646
0.0035658586 0.0020069003 0.005577666 0.011737942 0.0025624514 -0.0036762315 -0.0034341712 0.0016415863
-0.0019792707 -0.0053225565 -0.0040045953 -0.008710297 0.0039574397 -0.008177768 0.008081597 0.0117173605
0.004151204 -0.002227082 -0.0042719087 -0.005128127 -0.008758002 -0.0067170085 -0.0098840315 -0.009133298
0.002619997 -0.007450122 0.014082153 -0.0016137473 0.0016599807 0.0023347184 -0.0040082666 0.0037174078
0.005229901 -0.0063454527 -0.0065079387 -0.0052477154 -0.012389985 0.009130407 -0.0077240574 -0.004735475
-0.00454303 0.0027784621 -0.0049007386 0.009402755 0.0037466835 0.004025533 0.0006196578 0.009277091
-0.0074921474 0.0006441591 0.0014206518 0.0005424999 -0.009658594 -0.001063931 0.007626586 0.010501584
0.003586236 0.005138391 0.0049086153 0.0005385926 -0.0064266967 -0.004143794 -0.010184687 -0.000642902
0.0098395385 0.0088283345 0.00583744 0.00350753 0.0019319856 0.008625289 0.002376902 0.01146761
-0.0024712186 -0.0037191117 -0.0007595407 -0.009177203 0.002031367 0.009445736 0.005070053 0.004015902
-0.010140287 -0.002726788 0.0006483235 -0.0071700593 0.002304657 -0.00073235773 -0.0039006472 0.007947538
0.0014086568 -0.006767474 -0.00068151916 0.00047323716 0.005382505 0.0010994324 -0.0016313317 0.007981127
-0.003465572 -0.0010065216 -0.007104462 -0.0006534644 0.0037435242 -0.0072526485 -0.0065582986 0.0031756647
0.001277609 -0.0064888927 -0.007525291 0.0017230989 -0.005266006 -0.0023066974 -0.010871939 0.00046200826
-0.009181636 -0.008161184 -0.0058523878 0.0037036976 0.0033896964 -0.0038440798 0.00431652 0.0041606156
0.010450889 -0.0013641675 0.009300724 -0.0072522704 0.008361836 -0.003064527 -0.005373738 -0.0019040621
-0.0017346573 -0.006086807 0.008006105 0.010080911 0.002953551 0.00227133 0.0018730966 -0.009506654
-0.004596747 0.0070774755 0.0049858447 0.005932771 -0.007089051 -0.0087055955 -0.001446972 0.004314023
-0.0019647288 -0.007193558 -0.006977705 -0.0051962826 0.0027367848 -0.0020809546 0.0017732685 0.006255789
-0.010535171 -0.00942716 -0.010487105 -0.005835231 -0.004222518 0.0059866915 0.0009598285 0.0059042117
0.010914965 0.003838679 0.003745915 0.0001567957 0.00073805667 0.003521874 -0.0052282102 -0.01278641
-0.0050519197 -0.0066216243 -0.0071939556 0.0064750803 -0.0019477748 0.0062720384 -0.0035959086 0.00097401225
0.0035528503 -0.0022448774 0.0014463793 -0.011818957 -0.0012155726 0.0031464398 0.0061628236 0.0011551665
-0.0052394993 -0.006650397 0.011166646 -0.00020758365 0.0054897 -0.008440128 0.0031860627 0.009424208
-0.009653719 -0.0064368276 -0.0019797392 0.002130482 -0.010766108 -0.0075783017 -0.006138725 0.008047185
00000000: 9313 d5b9 8a21 8bbb 1b68 68bb cb7b 3b3b
00000010: 10e4 2cbc d359 52ba 1f2d e7bb 056d c23b
00000020: c297 95bb 77a8 6bbb 50c1 223b 7a92 bebb
00000030: c805 27bc 576b 17bc b9de 033c 06b3 063c
00000040: 9441 a03b 34f1 15bc 4de3 0f3c 4919 3b3c
00000050: f451 543c 4d2b fe3b 33dd f53b eb23 1dbb
00000060: c427 aa3b 4773 49bb 96d5 c9ba 1e09 5fbb
00000070: cf34 593b 1674 1e3b c032 2639 07e3 f33b
00000080: 21f0 953a 28de 653a 5911 4b3b 0f29 44bb
00000090: 1692 d9bb 4872 f6bb 43c7 0dbb 1be7 a13b
000000a0: ac3c 113a 2a72 9f3b 1170 0e3c 9945 dabb
000000b0: 98a7 183c 4041 183c 7c30 94bb 321b aa3b
000000c0: 4339 0d3c 9b2d 8f3b c5d7 00bc ee9f 96bb
000000d0: 065d 18bb 924a 09bc e36b c6bb 948b 43b9
000000e0: 2eb1 693b 3386 033b dbc4 b63b 7f50 403c
000000f0: cdee 273b eeec 70bb d50f 61bb 7f2a d73a
00000100: a7b6 01bb d768 aebb fb38 83bb a2b5 0ebc
00000110: 69ad 813b 0cfc 05bc ad68 043c 2cfa 3f3c
00000120: d306 883b 3cf4 11bb 5efb 8bbb d909 a8bb
00000130: b97d 0fbc 5a1a dcbb a2f0 21bc d4a3 15bc
00000140: 41b4 2b3b 2720 f4bb d5b8 663c 6084 d3ba
00000150: b693 d93a 1302 193b c757 83bb c19f 733b
00000160: 975f ab3b 84ed cfbb 8c40 d5bb 07f5 abbb
00000170: 5dff 4abc b497 153c 171a fdbb 0b2c 9bbb
00000180: b3dd 94bb dc16 363b 6096 a0bb 030e 1a3c
00000190: eb8a 753b 9ee8 833b 8870 223a f1fe 173c
000001a0: b080 f5bb c9dc 283a 2a35 ba3a 8d36 0e3a
000001b0: 143f 1ebc 9a73 8bba 71e8 f93b d60e 2c3c
000001c0: 0e07 6b3b f35f a83b 73d8 a03b 5630 0d3a
000001d0: 0a97 d2bb aac8 87bb acdd 26bc 6c88 28ba
000001e0: 0436 213c b8a4 103c ff47 bf3b 97de 653b
000001f0: ae3a fd3a 1651 0d3c ccc5 1b3b a4e2 3b3c
00000200: 2bf4 21bb 57bc 73bb ea1b 47ba fb5b 16bc
00000210: af20 053b 4ac2 1a3c b022 a63b d497 833b
00000220: 7223 26bc e9b3 32bb 41f4 293a d1f2 eabb
00000230: ba09 173b b2fb 3fba 00a2 7fbb 6436 023c
00000240: aea2 b83a b0c1 ddbb faa7 32ba d11c f839
00000250: b95f b03b d41a 903a 69d2 d5ba 46c3 023c
00000260: a61e 63bb 43ed 83ba 8ccc e8bb 414d 2bba
00000270: ea55 753b a0a7 edbb ffe6 d6bb d01e 503b
00000280: 7275 a73a c7a0 d4bb b796 f6bb 9bd9 e13a
00000290: 768e acbb f62b 17bb 3820 32bc b339 f239
000002a0: 936e 16bc 7db6 05bc 63c5 bfbb bcb9 723b
000002b0: ab25 5e3b f5ec 7bbb 9871 8d3b c655 883b
000002c0: 353a 2b3c decd b2ba 1062 183c 74a4 edbb
000002d0: 1500 093c 3bd6 48bb 2e16 b0bb b991 f9ba
000002e0: 715d e3ba d773 c7bb 0a2c 033c 682a 253c
000002f0: 5d90 413b 98da 143b b182 f53a ccc1 1bbc
00000300: 4fa0 96bb 2bea e73b 4c60 a33b b167 c23b
00000310: 454b e8bb eaa1 0ebc 53a8 bdba a65c 8d3b
00000320: aec2 00bb f0b7 ebbb 3ba5 e4bb 9445 aabb
00000330: a15b 333b a060 08bb 046d e83a 5dfd cc3b
00000340: b69b 2cbc 6074 1abc 1bd2 2bbc 7735 bfbb
00000350: 0c5d 8abb 022c c43b 009d 7b3a 1e78 c13b
00000360: aed4 323c 5992 7b3b 067e 753b 8669 2439
00000370: 257a 413a 3ecf 663b 6851 abbb 177e 51bc
00000380: 938a a5bb 36fa d8bb 46bb ebbb e92c d43b
00000390: 7a4c ffba ac85 cd3b 56a9 6bbb db54 7f3a
000003a0: f0d6 683b cb1e 13bb 7094 bd3a 4ca4 41bc
000003b0: d953 9fba 8034 4e3b 83f1 c93b f568 973a
000003c0: 1bb0 abbb 93eb d9bb 4ff4 363c d0aa 59b9
000003d0: f1e2 b33b 7648 0abc 43cd 503b fe67 1a3c
000003e0: a22a 1ebc 06ec d2bb 83be 01bb 8f9f 0b3b
000003f0: 5464 30bc 6753 f8bb 5c27 c9bb 57d8 033c

bias f4 [10]
-0.008130632 0.008812261 0.0031622115 0.0022092683 0.001743506 -0.0015433377 -0.0038816158 -0.0021959832
-0.006867532 0.0056535415
00000000: 5836 05bc 4d61 103c 1b3d 4f3b 5fc9 103b
00000010: 5b86 e43a d249 caba b562 7ebb 7cea 0fbb
00000020: 0909 e1bb 5841 b93b
